files/audio/wake_model/wake_word_classifier.pth (torch, 290506 bytes, 6 tensors)

lstm.weight_ih_l0 f4 [512, 10]
0.07272422 -0.04208888 -0.065982096 0.0031879602 0.084791616 0.06225093 0.045121744 -0.0060354164
-0.0008025593 -0.066764735 -0.06332002 0.023158126 0.0123375775 -0.04142037 0.05368157 0.009239162
0.052347753 -0.093669236 -0.0859002 0.05546313 0.029925713 0.109303445 -0.057101466 0.14005142
0.2814357 -0.093569875 -0.319306 -0.08509405 -0.3260619 -0.09528975 0.006339816 -0.02415728
-0.095330745 0.09905474 0.07766219 0.19297303 0.26305807 0.17068465 0.35267738 0.38933584
-0.03123428 0.08825581 -0.09608088 -0.06380202 0.31702307 -0.017512355 -0.0677195 -0.10487692
-0.31346795 -0.04918965 -0.021769105 0.061920896 0.060352694 0.06471676 0.07309477 -0.06771675
-0.06714357 0.06566072 -0.024459265 0.047840796 -0.062333964 0.014207727 -0.057883635 -0.014294808
0.05917518 -0.041347478 -0.056816004 0.044617098 -0.106030874 0.063164234 -0.10173376 -0.05619168
-0.017436227 0.07610618 0.051112577 -0.009336716 0.04480607 -0.018251266 0.024940647 -0.08466967
-0.083664104 0.08499711 0.01958841 0.04722392 0.06914542 0.07384721 0.014647655 -0.03772655
-0.03760852 0.01080621 -0.052165963 0.07595202 -0.047758415 -0.060018815 -0.012057155 -0.017266627
-0.057460677 -0.03703614 -0.0025266777 0.048814356 -0.0490922 0.043561287 0.028876029 0.061466575
-0.08605927 -0.021321742 0.061990388 -0.05297789 0.023288691 -0.069257416 0.025791222 -0.07055475
-0.06960777 0.011079235 -0.025108926 -0.023787405 0.039145265 -0.024891948 0.042265806 -0.03480186
0.047891576 -0.08572875 0.058080334 -0.04949292 -0.042622868 -0.038273416 0.00972322 -0.002474537
0.0038234948 0.03808314 0.04911165 0.039648183 0.07484067 0.051054925 0.066155955 0.031587496
0.047668576 0.008756566 -0.073802456 -0.017047318 -0.05142375 -0.0070274333 -0.023777341 0.00083764986
-0.0410612 -0.028342258 0.0487804 -0.05835781 -0.05800714 -0.044825282 -0.0030443394 -0.007167634
0.071254924 -0.022991927 -0.029321829 0.024239922 0.07641279 0.071047135 0.0461821 0.073531285
-0.026010225 0.053101588 0.0134210475 -0.0112064965 0.054746043 -0.056955118 -0.018252183 -0.00643969
0.09686668 0.10319035 0.0141310245 -0.024406241 -0.07487753 0.09581496 -0.104478754 0.21308056
0.39134648 0.35521993 0.25134835 0.35362825 0.054862056 -0.004746121 -0.081973605 0.074685864
-0.004414465 -0.08338166 0.051376484 -0.0027588683 -0.07934287 -0.06494996 0.07903377 -0.057331048
-0.027634699 0.088178836 -0.045585137 0.010221378 0.052867495 -0.0877057 0.022711089 0.03405656
-0.05873437 0.025201058 0.013049864 0.060935818 0.007101818 -0.0837247 0.01333252 -0.03635387
0.06405645 -0.004437273 0.071943074 -0.022438986 -0.08044057 -0.011322191 0.07251146 0.05622659
0.028037272 -0.02466527 0.060228407 -0.032937616 -0.02371497 0.056936417 -0.083078794 0.0057206154
-0.082566634 -0.08073964 0.055555604 0.09345538 -0.0026724876 -0.020008657 -0.064949326 -0.025161754
0.059561267 0.0029531324 0.036838755 0.054737847 -0.050829884 -0.037203755 0.026444675 -0.04087805
0.060848784 -0.04003263 -0.084892265 -0.011903519 -0.11067508 -0.031556956 -0.086993665 0.008960932
-0.042436887 -0.07041406 0.058612324 -0.030485764 0.079916775 -0.025590053 0.034100734 -0.06937845
00000000: 70f0 943d 6465 2cbd 9f21 87bd 19ed 503b
00000010: 3aa7 ad3d d5fa 7e3d 94d1 383d bec4 c5bb
00000020: d862 52ba f3bb 88bd edad 81bd 1cb6 bd3c
00000030: 8d23 4a3c 68a8 29bd 35e1 5b3d db5f 173c
00000040: 996a 563d a8d5 bfbd 72ec afbd 4f2d 633d
00000050: c526 f53c 7cda df3d 3ae3 69bd a469 0f3e
00000060: 5718 903e 90a1 bfbd 137c a3be ca45 aebd
00000070: 96f1 a6be 4627 c3bd 3bbe cf3b 7de5 c5bc
00000080: c43c c3bd 36dd ca3d 5b0d 9f3d b99a 453e
00000090: 8caf 863e f5c7 2e3e 2192 b43e 0757 c73e
000000a0: 08df ffbc 76bf b43d 0dc6 c4bd a2aa 82bd
000000b0: d950 a23e 1276 8fbc 85b0 8abd b6c9 d6bd
000000c0: df7e a0be 167b 49bd 1f55 b2bc c4a0 7d3d
000000d0: 6334 773d 388a 843d b6b2 953d 14af 8abd
000000e0: 9182 89bd 2179 863d cc5e c8bc b6f4 433d
000000f0: e651 7fbd 87c7 683c 6417 6dbd c534 6abc
00000100: ac61 723d f95b 29bd e6b7 68bd 6bc0 363d
00000110: b726 d9bd 405c 813d ca59 d0bd 3f29 66bd
00000120: 6bd6 8ebc 8fdd 9b3d 6c5b 513d 06f9 18bc
00000130: 9286 373d ae83 95bc 5450 cc3c 4b67 adbd
00000140: 1658 abbd f712 ae3d e077 a03c de6d 413d
00000150: 1d9c 8d3d 353d 973d b8fc 6f3c 2887 1abd
00000160: 640b 1abd 880c 313c faab 55bd bc8c 9b3d
00000170: 549e 43bd 4ad6 75bd 608b 45bc be72 8dbc
00000180: e35b 6bbd 35b3 17bd 9e96 25bb 90f1 473d
00000190: e714 49bd 526d 323d 6c8d ec3c 60c4 7b3d
000001a0: d83f b0bd efaa aebc a2e9 7d3d 58ff 58bd
000001b0: edc7 be3c d5d6 8dbd 1d48 d33c 027f 90bd
000001c0: 858e 8ebd ae85 353c 3cb1 cdbc cedd c2bc
000001d0: c956 203d 33ea cbbc e91e 2d3d 658c 0ebd
000001e0: f529 443d 8e92 afbd a5e5 6d3d 17b9 4abd
000001f0: 5195 2ebd 96c4 1cbd 244e 1f3c d72b 22bb
00000200: 9993 7a3b 11fd 1b3d 4c29 493d 2266 223d
00000210: 1146 993d f81e 513d c67c 873d e461 013d
00000220: 2040 433d b377 0f3c be25 97bd d1a6 8bbc
00000230: b6a1 52bd 6246 e6bb b3c8 c2bc bb95 5b3a
00000240: ca2f 28bd 062e e8bc f5cd 473d 9908 6fbd
00000250: e598 6dbd b79a 37bd 8a83 47bb 79de eabb
00000260: 1aee 913d 9159 bcbc 5534 f0bc cd92 c63c
00000270: 4f7e 9c3d 2981 913d 7129 3d3d 9297 963d
00000280: 6513 d5bc 0d81 593d f4e3 5b3c 749b 37bc
00000290: 633d 603d c549 69bd 9a85 95bc 0904 d3bb
000002a0: 0a62 c63d 7655 d33d d085 673c 99ef c7bc
000002b0: 6459 99bd a23a c43d f5f8 d5bd ca31 5a3e
000002c0: 915e c83e 63df b53e bbb0 803e c30e b53e
000002d0: 09b7 603d 5985 9bbb c7e1 a7bd e7f4 983d
000002e0: 37a7 90bb 01c4 aabd 2670 523d 21ce 34bb
000002f0: 847e a2bd 7c04 85bd 75dc a13d f6d3 6abd
00000300: 2a62 e2bc 1b97 b43d 7bb7 3abd 9177 273c
00000310: 968b 583d 0c9f b3bd 9b0c ba3c e47e 0b3d
00000320: 7393 70bd 7372 ce3c 19cf 553c d697 793d
00000330: 5eb6 e83b db77 abbd a470 5a3c cce7 14bd
00000340: 0730 833d 8b66 91bb e456 933d f7d1 b7bc
00000350: 07be a4bd b680 39bc e380 943d da4d 663d
00000360: 6cae e53c d20e cabc 10b2 763d 98e9 06bd
00000370: e645 c2bc 2936 693d 3725 aabd 0074 bb3b
00000380: b218 a9bd d35a a5bd 468e 633d 8965 bf3d
00000390: e724 2fbb 32e9 a3bc 2704 85bd 0620 cebc
000003a0: 84f6 733d 5789 413b 3ce4 163d cb34 603d
000003b0: ff32 50bd f762 18bd 81a2 d83c be6f 27bd
000003c0: 933c 793d 41f9 23bd ffdb adbd fa06 43bc
000003d0: 9ea9 e2bd de41 01bd bc29 b2bd dfd0 123c
000003e0: 4dd2 2dbd 3f35 90bd 7a13 703d 48bd f9bc
000003f0: 68ab a33d 3ba2 d1bc 36ad 0b3d 4a16 8ebd

lstm.weight_hh_l0 f4 [512, 128]
0.066980325 -0.063523814 -0.07318619 -0.024815291 0.02943737 0.06025649 -0.050615802 0.004576072
-0.0010256544 0.055680044 -0.06425678 0.023512982 0.07101587 0.070964955 -0.019504994 0.02393946
0.022567466 -0.038613603 0.01708372 0.024606861 -0.059599645 0.012638703 -0.087991975 0.007823743
0.016805753 0.03611482 -0.037780117 0.038222454 -0.072784014 -0.03624002 0.05511091 0.07473267
0.05397127 -0.010411218 0.044924445 -0.08713635 0.01438912 -0.051212233 0.07345442 0.03766107
-0.029953197 0.06777113 0.0063815042 0.002617605 -0.048208915 -0.07322234 -0.08060163 -0.01835411
0.0062794685 0.064900585 0.04893007 0.0857858 -0.0031615123 0.055270083 0.04141266 -0.007940561
-0.03567856 0.029887587 0.062684886 0.05756747 0.025613412 -0.037005756 -0.048914842 0.060050182
0.08261635 -0.08049059 -0.06386811 0.04763391 0.05366578 -0.04373783 -0.080361985 -0.08588154
0.083086036 0.010352425 0.04172074 0.078925826 0.029005416 -0.00734742 0.005788155 -0.03832353
0.06444722 0.06533032 0.02338104 -0.017879918 0.013899766 -0.034043696 -0.037078448 0.006694615
0.08508345 -0.080859974 0.018102862 0.0126487985 0.025364973 -0.009319343 0.04402841 0.04722672
0.06118869 -0.0031101108 -0.024913758 -0.066727586 0.04220388 0.082234584 0.0041881725 -0.0789191
0.04756861 -0.073491365 -0.053645868 -0.0522318 -0.079883926 0.044407524 0.062695004 0.025675386
0.005464837 0.041865356 -0.049552932 -0.077959195 -0.02561652 -0.059546363 0.026445486 0.0051480606
0.060102098 -0.02009923 -0.0827258 0.080726065 -0.07541577 -0.035598766 -0.059273586 -0.059614494
0.031399086 0.08776607 -0.08142875 0.03375852 0.07984447 0.0068005845 -0.05067345 -0.053716507
-0.08468499 0.009386443 -0.046954516 -0.044296548 0.018701695 -0.013928704 0.019912608 -0.007557966
-0.08698964 -0.03870777 -0.054559495 0.027459271 -0.070224196 -0.04935323 -0.04869038 -0.06157684
0.07235464 0.021440066 0.023126699 -0.02926952 0.013748758 -0.027115058 -0.023177162 -0.062597096
0.06374384 0.04732179 -0.01665873 -0.05808684 -0.042216327 0.059577815 0.06147095 0.08228416
-0.06107388 0.008179426 0.019583888 0.028849244 0.0031768084 -0.04046875 0.0030564591 0.06109301
0.01651422 0.032521933 -0.0050138235 0.015755199 0.07626907 -0.052682694 -0.023838341 0.039985575
0.024730325 0.08674342 0.029932596 0.026123203 -0.05703671 -0.0012304112 -0.00193578 0.030995816
-0.014783874 0.07562002 0.06385539 0.058030628 0.04555347 0.067808025 -0.08691307 0.023011222
0.035694025 0.018942155 0.075307794 0.082314946 -0.052174047 -0.036729153 -0.017721519 0.012524001
0.018683948 0.020999305 -0.08057876 -0.017175049 -0.043597795 0.034926787 0.015776336 -0.056005742
-0.007662803 0.07969395 -0.021122128 -0.08411492 -0.08075258 -0.08528862 0.02696646 -0.024451427
0.0071052536 0.01412075 0.0050164014 -0.023619808 -0.040388376 0.0680564 0.05672192 0.087525226
0.012080498 -0.035710003 -0.06850283 0.022056699 -0.03820578 -0.04077913 0.07673425 -0.028129008
0.026119694 -0.06994066 0.035354905 0.06131185 0.005387284 0.008803718 0.038003437 0.01600673
-0.05750934 -0.04123872 -0.04192271 -0.0026417002 -0.013404205 -0.03666898 0.043402843 -0.064332
00000000: fb2c 893d c618 82bd a4e2 95bd 7049 cbbc
00000010: a426 f13c 82cf 763d 8452 4fbd e0f2 953b
00000020: 406f 86ba c210 643d 0f99 83bd 4c9e c03c
00000030: c570 913d 1356 913d f0c8 9fbc b01c c43c
00000040: 68df b83c 4c29 1ebd 28f3 8b3c 5494 c93c
00000050: c21e 74bd 9012 4f3c 2335 b4bd 282f 003c
00000060: 38ac 893c 22ed 133d 53bf 1abd 268f 1c3d
00000070: c90f 95bd 6a70 14bd fabb 613d 710d 993d
00000080: fa10 5d3d d093 2abc b202 383d 8b74 b2bd
00000090: 58c0 6b3c ebc3 51bd 456f 963d 7e42 1a3d
000000a0: 6860 f5bc 97cb 8a3d f01b d13b 208c 2b3b
000000b0: b676 45bd 98f5 95bd 7812 a5bd 5c5b 96bc
000000c0: 00c4 cd3b 99ea 843d e66a 483d 77b0 af3d
000000d0: 6031 4fbb e262 623d 52a0 293d 2019 02bc
000000e0: af23 12bd d0d6 f43c ef60 803d decb 6b3d
000000f0: 38d3 d13c 5993 17bd ee5a 48bd 2ef7 753d
00000100: c332 a93d 40d8 a4bd 49cd 82bd c61b 433d
00000110: a6d0 5b3d 7026 33bd d394 a4bd a9e2 afbd
00000120: 0329 aa3d 389d 293c 5ee3 2a3d dda3 a13d
00000130: c49c ed3c a0c2 f0bb 90aa bd3b 22f9 1cbd
00000140: e7fc 833d e7cb 853d 9889 bf3c e878 92bc
00000150: d8bb 633c 6771 0bbd 92df 17bd 805e db3b
00000160: 3b40 ae3d ea99 a5bd 744c 943c e83c 4f3c
00000170: 34ca cf3c 28b0 18bc 2257 343d ce70 413d
00000180: fea0 7a3d 00d3 4bbb f017 ccbc 79a8 88bd
00000190: fadd 2c3d 9b6a a83d f03c 893b 56a0 a1bd
000001a0: 4ed7 423d a482 96bd c5bb 5bbd 03f1 55bd
000001b0: 2f9a a3bd aae4 353d 3d66 803d 3055 d23c
000001c0: 6012 b33b 027b 2b3d 04f8 4abd 12a9 9fbd
000001d0: bcd9 d1bc e3e6 73bd 34a4 d83c 10b1 a83b
000001e0: 9e2d 763d 24a7 a4bc 256c a9bd b553 a53d
000001f0: 9573 9abd 03d0 11bd dcc8 72bd 542e 74bd
00000200: 549c 003d b3be b33d 1ec4 a6bd 6046 0a3d
00000210: 7f85 a33d 70d7 de3b f78e 4fbd d705 5cbd
00000220: 536f adbd 98c9 193c 6153 40bd 4c70 35bd
00000230: 4c34 993c 3835 64bc c41f a33c d0a8 f7bb
00000240: a027 b2bd 0a8c 1ebd c779 5fbd 44f2 e03c
00000250: b4d1 8fbd 9d26 4abd 906f 47bd ff37 7cbd
00000260: ab2e 943d 14a3 af3c 3474 bd3c a2c6 efbc
00000270: 7842 613c 6620 debc 08de bdbc e832 80bd
00000280: 218c 823d 7ed4 413d e477 88bc 77ec 6dbd
00000290: 07eb 2cbd de07 743d f6c8 7b3d 9984 a83d
000002a0: 9b28 7abd 0003 063c 646e a03c 4055 ec3c
000002b0: 0032 503b 8fc2 25bd e04e 483b aa3c 7a3d
000002c0: d448 873c b835 053d 004b a4bb 0c11 813c
000002d0: f532 9c3d cfc9 57bd a048 c3bc eac7 233d
000002e0: 4097 ca3c 89a6 b13d 3435 f53c 5400 d63c
000002f0: 539f 69bd c045 a1ba 00ba fdba f0ea fd3c
00000300: 1038 72bc abde 9a3d 9dc6 823d 86b1 6d3d
00000310: 4696 3a3d efde 8a3d 7bff b1bd 0882 bc3c
00000320: e633 123d 942c 9b3c f93a 9a3d bd94 a83d
00000330: 74b4 55bd 4f71 16bd b82c 91bc 7831 4d3c
00000340: 140f 993c bc06 ac3c 7a06 a5bd b0b2 8cbc
00000350: 9a93 32bd 640f 0f3d 603d 813c 4766 65bd
00000360: 4018 fbbb 9536 a33d 5008 adbc 7144 acbd
00000370: 9c61 a5bd cdab aebd c4e8 dc3c 5c4e c8bc
00000380: 30d3 e83b b85a 673c a060 a43b 547e c1bc
00000390: 486e 25bd 2761 8b3d 3e55 683d 6d40 b33d
000003a0: 48ed 453c a744 12bd 364b 8cbd 40b0 b43c
000003b0: aa7d 1cbd 0408 27bd d926 9d3d ce6e e6bc
000003c0: f8f8 d53c 0c3d 8fbd 4ed0 103d 2222 7b3d
000003d0: d087 b03b 783d 103c 7ea9 1b3d 8c20 833c
000003e0: ea8e 6bbd efe9 28bd 26b7 2bbd 6020 2dbb
000003f0: 509d 5bbc 3632 16bd 2ec7 313d 7fc0 83bd

lstm.bias_ih_l0 f4 [512]
-0.027460966 -0.018714879 0.044683028 0.04061103 -0.06491753 0.08802656 -0.04880673 0.08221408
0.064340524 -0.059241936 -0.01474949 -0.053321358 -0.05869046 0.06544126 0.10708526 -0.06827131
0.108357884 -0.035195444 -0.019009054 -0.07395492 -0.010966748 0.010095458 -0.0010058187 0.0041181
-0.05723722 -0.011254138 -0.0707364 0.04997576 -0.1182298 0.04341823 -0.07965053 0.04049327
-0.029765014 0.00035726704 0.057890218 -0.054077707 -0.02766936 -0.15046777 0.011790546 0.04692091
0.11924657 0.06415294 0.0070166527 0.069985166 -0.05430694 0.022845374 0.015030246 0.019834135
-0.036897574 0.08843535 -0.005500257 -0.08716077 -0.07335724 0.021940166 0.06632036 -0.002392978
0.041873217 -0.051356804 -0.008751342 -0.032930978 0.020383902 0.08683506 -0.013256952 -0.045348313
-0.06513225 -0.048279032 0.004064768 0.13638519 0.08415433 0.04743512 0.13640915 0.00631235
0.09065487 0.02905918 0.042228535 -0.033406794 0.1060486 -0.06597529 0.108127706 0.0443844
0.005814292 -0.056453537 0.017339706 -0.02180351 -0.065812714 0.020799931 0.07455113 -0.06707305
0.03234546 -0.01340513 0.06611839 -0.09833836 0.10536556 -0.007022292 -0.069142774 0.027494203
0.16710132 -0.03634291 -0.0792595 0.08155488 -0.04765016 0.042268023 -0.020291358 -0.015819915
0.016221935 0.05793216 0.16103381 0.15587012 -0.043251246 -0.0067762393 0.04821844 -0.021099126
-0.025560861 -0.03558943 -0.05360023 -0.057422414 0.021485992 0.095495276 -0.032678053 0.059953026
-0.06879032 -0.06913484 0.05125136 0.066702835 -0.033718612 -0.033499442 0.074798085 -0.019568093
0.0040263757 0.08018326 0.05931007 0.08209068 0.007445395 -0.024374954 0.0108604655 -0.065667294
0.034831695 -0.01198139 -0.074633114 -0.05582504 -0.014715962 -0.06347658 -0.070387185 0.052675836
0.078606404 0.013191164 -0.061699025 0.031725116 0.05322387 0.03089951 -0.04829658 -0.0623851
-0.05341993 0.046957158 -0.07025157 0.052992575 -0.046459712 0.053379364 -0.034467798 0.043769397
-0.06326872 0.040358417 -0.017737195 0.035674565 -0.015540995 0.06509749 -0.0688526 -0.054117586
0.058894925 0.02957543 -0.069851615 -0.08596185 -0.076379046 -0.07035269 -0.03801671 -0.042256344
0.07134641 0.031432226 0.03295836 0.007898718 -0.0072008446 -0.00014147907 -0.022942066 0.03514494
-0.08734784 0.04523433 0.0203287 0.07292818 -0.030818544 -0.081517115 0.0816467 0.081835605
0.07757779 -0.02585379 -0.027927324 0.06283396 0.072274305 -0.08218545 -0.057758294 -0.041217066
-0.022618629 -0.06881385 0.05679495 0.01679273 -0.038285576 -0.06104278 -0.072493 -0.07110104
0.07037925 0.07237399 0.08575948 -0.07707867 -0.05571707 -0.08581853 0.016866945 0.0812489
-0.010168031 -0.02843139 0.049755134 0.06739982 -0.017599091 -0.041088574 0.068517916 0.0076239854
0.04495164 0.04101927 -0.020802438 -0.059615776 -0.05501136 -0.024503753 -0.0047071204 -0.067441344
-0.010325737 0.0487561 0.078104205 -0.044712022 -0.005076617 -0.06423529 -0.046018332 -0.045713663
0.081732966 -0.038055863 -0.08067384 0.07156531 0.07486563 -0.041017238 -0.009295024 0.07281808
0.0115145 -0.06299667 -0.07907313 -0.07848927 -0.042974707 -0.08458918 -0.024726473 0.025371514
00000000: d2f5 e0bc f24f 99bc 8d05 373d c057 263d
00000010: 7bf3 84bd 4547 b43d 91e9 47bd db5f a83d
00000020: f7c4 833d aca7 72bd d8a7 71bc 7f67 5abd
00000030: 6865 70bd 1106 863d 844f db3d d4d1 8bbd
00000040: bdea dd3d 1929 10bd e0b8 9bbc ad75 97bd
00000050: e0ad 33bc 6b67 253c add5 83ba 20f1 863b
00000060: 9371 6abd 4763 38bc 3fde 90bd 62b3 4c3d
00000070: 7722 f2bd 50d7 313d d11f a3bd 45dc 253d
00000080: c2d5 f3bc 924f bb39 4b1e 6d3d 9680 5dbd
00000090: dbaa e2bc 3914 1abe 222d 413c 2430 403d
000000a0: 8c37 f43d 9e62 833d f3eb e53b 6254 8f3d
000000b0: f470 5ebd 3926 bb3c 6c41 763c 327b a23c
000000c0: e921 17bd 981d b53d 803b b4bb 5981 b2bd
000000d0: 523c 96bd ddbb b33c f8d2 873d 82d3 1cbb
000000e0: 4083 2b3d 835b 52bd ca61 0fbc a2e2 06bd
000000f0: 24fc a63c 94d6 b13d b033 59bc 27bf 39bd
00000100: 0f64 85bd 3cc0 45bd bf31 853b 8fa8 0b3e
00000110: 1b59 ac3d 544b 423d d7ae 0b3e d4d7 ce3b
00000120: 43a9 b93d 840d ee3c d4f7 2c3d 90d5 08bd
00000130: 0230 d93d 0e1e 87bd 0f72 dd3d 6bcc 353d
00000140: d185 be3b d33b 67bd 000c 8e3c 469d b2bc
00000150: d1c8 86bd 9e64 aa3c 43ae 983d 985d 89bd
00000160: ac7c 043d 31a1 5bbc 1469 873d 9f65 c9bd
00000170: e6c9 d73d 411b e6bb ba9a 8dbd 863b e13c
00000180: 9c1c 2b3e 4edc 14bd ce52 a2bd 3f06 a73d
00000190: d02c 43bd 3c21 2d3d 103a a6bc c498 81bc
000001a0: dde3 843c 464a 6d3d 0ce6 243e 6b9c 1f3e
000001b0: 3828 31bd 370b debb b380 453d 13d8 acbc
000001c0: 0365 d1bc 39c6 11bd ea8b 5bbd c433 6bbd
000001d0: 6403 b03c 0793 c33d 6cd9 05bd 4e91 753d
000001e0: f0e1 8cbd 9196 8dbd f2ec 513d 7f9b 883d
000001f0: 871c 0abd b636 09bd bd2f 993d 444d a0bc
00000200: b0ef 833b 1f37 a43d 1eef 723d 291f a83d
00000210: 80f8 f33b fcad c7bc 18f0 313c 937c 86bd
00000220: aeab 0e3d 984d 44bc 3fd9 98bd cca8 64bd
00000230: 381b 71bc 0200 82bd 2827 90bd 9ec2 573d
00000240: 65fc a03d c01f 583c 1eb8 7cbd 32f2 013d
00000250: 4601 5a3d f820 fd3c a2d2 45bd 8587 7fbd
00000260: dbce 5abd 2656 403d 0ee0 8fbd be0e 593d
00000270: 8a4c 3ebd 52a4 5a3d 1b2e 0dbd 8a47 333d
00000280: 0893 81bd de4e 253d 984d 91bc 7e1f 123d
00000290: a89f 7ebc d551 853d 9802 8dbd 67aa 5dbd
000002a0: ce3b 713d 2c48 f23c 5d0e 8fbd c40c b0bd
000002b0: 9e6c 9cbd 1215 90bd 69b7 1bbd fd14 2dbd
000002c0: 111e 923d 14bf 003d 58ff 063d a069 013c
000002d0: 10f5 ebbb 005a 14b9 00f1 bbbc 24f4 0f3d
000002e0: 6de3 b2bd a247 393d 6088 a63c 5f5b 953d
000002f0: 2c77 fcbc 72f2 a6bd 6336 a73d 6d99 a73d
00000300: 1be1 9e3d 54cb d3bc d8c7 e4bc 17af 803d
00000310: 8d04 943d d850 a8bd f693 6cbd 3ad3 28bd
00000320: b44a b9bc 47ee 8cbd d2a1 683d e890 893c
00000330: 56d1 1cbd fe07 7abd 3677 94bd 6c9d 91bd
00000340: ff22 903d d138 943d aba2 af3d 6cdb 9dbd
00000350: 9537 64bd a0c1 afbd 8c2c 8a3c d365 a63d
00000360: d097 26bc f2e8 e8bc 0acc 4b3d eb08 8a3d
00000370: f82b 90bc 7e4c 28bd 1f53 8c3d a0d2 f93b
00000380: 361f 383d d203 283d e069 aabc ac2f 74bd
00000390: 9853 61bd 18bc c8bc 303e 9abb b01e 8abd
000003a0: 482d 29bc 7ab4 473d 19f5 9f3d f423 37bd
000003b0: c059 a6bb cb8d 83bd b87d 3cbd 403e 3bbd
000003c0: 9d63 a73d 77e0 1bbd 5438 a5bd d590 923d
000003d0: 2753 993d b101 28bd 284a 18bc a521 953d
000003e0: 50a7 3c3c 6604 81bd 18f1 a1bd fbbe a0bd
000003f0: 3f06 30bd 183d adbd 2c8f cabc ecd7 cf3c

lstm.bias_hh_l0 f4 [512]
-0.07686487 0.06794819 -0.010561488 0.0966818 -0.10349174 -0.014463626 -0.026580175 -0.02784194
-0.055196617 0.0045817043 0.05515705 0.05551698 0.0021303375 0.014077137 0.049593948 -0.086859874
-0.013249517 0.07819205 0.059893303 -0.04101962 0.07045256 0.03253108 0.05426136 0.005036061
0.034159727 0.060178313 0.031805463 -0.0795093 -0.10968164 0.06616826 -0.1104477 -0.02976583
-0.010793373 -0.028356718 0.029656611 0.0062852036 0.038621474 -0.1411884 -0.05271087 -0.02534602
0.070387155 0.027659625 0.09369944 -0.04147191 -0.0008233242 0.07640574 0.025185844 -0.055400245
-0.004167301 0.0347127 -0.036781196 0.032644942 0.02995056 -0.021762988 0.0012889297 0.027351987
-0.0892956 -0.0040237023 0.0025666137 0.057138503 -0.08340908 -0.042834137 0.07311963 0.046966758
0.048060797 0.08535867 0.052308977 0.07302806 0.07837816 -0.095339365 0.15099692 0.07749767
0.06612212 -0.02618219 -0.0030753897 -0.0069844383 0.11483665 -0.060199693 -0.022131948 0.023062635
0.02614773 0.07218505 0.012246765 0.043541096 -0.044762958 -0.039106973 0.055200167 0.0048943246
-0.10397465 0.085072935 -0.010688405 0.07796037 0.10080241 0.08349988 0.00022632987 -0.016605567
0.059854057 -0.086860396 -0.064286605 0.07753236 -0.06695399 0.0051165195 -0.08793354 0.057919674
-0.06422929 -0.018153787 0.08073009 0.15228666 -0.076702796 0.09291498 0.045050148 0.020217353
-0.028982993 -0.030623218 0.016647171 -0.056951024 0.035101317 0.08106575 0.02493827 -0.06586821
0.0583648 -0.031068638 0.075104274 0.101790346 0.047622986 0.08825899 0.03903925 0.052688718
-0.06383315 -0.0478176 0.074330844 0.083182044 0.05738727 0.07534332 0.03422892 -0.051572148
-0.083369374 0.004298158 0.03778375 -0.004552968 -0.019010134 -0.0092047155 0.0046882853 0.011008769
-0.08373171 -0.05163703 -0.03464064 -0.048982624 0.06680486 -0.07042603 -0.053141873 -0.014497854
-0.054741886 -0.031358697 0.04598116 0.012393005 0.035283074 0.060341842 -0.08636644 -0.07986227
-0.013953008 -0.040253043 -0.023475237 -0.030834287 0.022369541 0.029183127 -0.057319555 -0.076179154
-0.043619204 0.036640905 0.070306696 -0.08334396 -0.025651827 0.0305764 -0.015347518 0.038173027
-0.01193209 -0.027954381 -0.027100887 0.06422856 -0.05668735 -0.032676958 -0.054573383 0.038668893
-0.03185584 -0.08748705 0.03711348 -0.050758585 -0.0145772025 0.07383596 -0.06948307 -0.026945028
-0.008755378 -0.0050999373 -0.04581512 0.01387962 0.08433371 0.0044758394 0.04408727 0.0784696
0.039434887 -0.08571314 -0.082484454 -0.05318298 -0.0266351 0.088192694 0.03042271 -0.07641665
0.039767914 0.0691311 -0.00845506 -0.010288991 -0.025682792 -0.0440991 0.06550806 -0.02255857
-0.08604025 -0.05470194 -0.028518159 0.022181898 0.05386921 -0.04344809 0.0069488212 -0.030729309
-0.067341305 0.066394515 0.0043687746 0.06217446 0.06891043 -0.008321777 -0.015483886 0.080989994
0.07564253 0.041862197 -0.03255553 0.004333824 0.08077475 -0.044414073 0.03551554 0.044425838
-0.08265974 -0.0500896 0.08645318 -0.058405846 -0.079999775 0.004008889 -0.05170039 -0.025100797
-0.08550366 -0.06582488 -0.015921436 0.082970835 0.032169983 -0.072604045 -0.021355554 0.051882796
00000000: 546b 9dbd 6c28 8b3d 170a 2dbc 1c01 c63d
00000010: 7af3 d3bd d8f8 6cbc abbe d9bc c814 e4bc
00000020: d915 62bd 1f22 963b 5cec 613d c665 633d
00000030: 229d 0b3b cba3 663c 0623 4b3d 97e3 b1bd
00000040: 8114 59bc 2723 a03d ae52 753d 3004 28bd
00000050: 6f49 903d 4f3f 053d 2941 5e3d 8b05 a53b
00000060: 12eb 0b3d 897d 763d 7246 023d c6d5 a2bd
00000070: c5a0 e0bd 3a83 873d 6732 e2bd 78d7 f3bc
00000080: b0d6 30bc 594c e8bc 6cf2 f23c 1cf4 cd3b
00000090: 8d31 1e3d b193 10be 5ae7 57bd 75a2 cfbc
000000a0: 2427 903d 7096 e23c 7ee5 bf3d 73de 29bd
000000b0: 5ad4 57ba 9d7a 9c3d 8b52 ce3c 5eeb 62bd
000000c0: db8d 88bb e72e 0e3d e1a7 16bd b4b6 053d
000000d0: e05a f53c 4b48 b2bc 4ef1 a83a 4611 e03c
000000e0: 9de0 b6bd 43d9 83bb a234 283b 100a 6a3d
000000f0: 61d2 aabd d972 2fbd bfbf 953d 3760 403d
00000100: 66db 443d 87d0 ae3d f041 563d bc8f 953d
00000110: bb84 a03d 4941 c3bd f09e 1a3e 19b7 9e3d
00000120: 096b 873d 087c d6bc 7a8c 49bb b7dd e4bb
00000130: 7a2f eb3d f493 76bd 0f4e b5bc daed bc3c
00000140: c433 d63c c1d5 933d a8a6 483c 2658 323d
00000150: 5d59 37bd a22e 20bd 9219 623d 9260 a03b
00000160: a9f0 d4bd b83a ae3d 6b1e 2fbc b0a9 9f3d
00000170: 7e71 ce3d fc01 ab3d f652 6d39 6608 88bc
00000180: 8729 753d dde3 b1bd b2a8 83bd 49c9 9e3d
00000190: 2c1f 89bd 7aa8 a73b 8016 b4bd 2e3d 6d3d
000001a0: a58a 83bd 40b7 94bc d155 a53d 09f1 1b3e
000001b0: 5b16 9dbd 364a be3d 8186 383d dd9e a53c
000001c0: be6d edbc 8bdd fabc a65f 883c 7a45 69bd
000001d0: 66c6 0f3d cd05 a63d 584b cc3c e9e5 86bd
000001e0: ee0f 6f3d a883 febc 45d0 993d 7577 d03d
000001f0: 5210 433d 21c1 b43d 9fe7 1f3d 20d0 573d
00000200: f4ba 82bd 63dc 43bd c53a 983d 595b aa3d
00000210: ea0e 6b3d 994d 9a3d a033 0c3d 513d 53bd
00000220: 90bd aabd 90d7 8c3b 22c3 1a3d 1031 95bb
00000230: 24bb 9bbc 60cf 16bc 30a0 993b 205e 343c
00000240: 887b abbd 5a81 53bd 58e3 0dbd 01a2 48bd
00000250: fdd0 883d 863b 90bd 4bab 59bd 6888 6dbc
00000260: 0739 60bd fa71 00bd be56 3c3d 080c 4b3c
00000270: fc84 103d 0229 773d e3e0 b0bd d48e a3bd
00000280: 289b 64bc 60e0 24bd 244f c0bc 3098 fcbc
00000290: 5440 b73c 7411 ef3c e9c7 6abd d103 9cbd
000002a0: 0daa 32bd c614 163d f5fc 8f3d 3db0 aabd
000002b0: c823 d2bc 5c7b fa3c 2874 7bbc 525b 1c3d
000002c0: d07e 43bc 9600 e5bc ae02 debc 438a 833d
000002d0: ff30 68bd 46d8 05bd 5788 5fbd 4663 1e3d
000002e0: 457b 02bd 692c b3bd 4e04 183d 3ce8 4fbd
000002f0: 38d5 6ebc 4f37 973d 244d 8ebd d2bb dcbc
00000300: b872 0fbc 601d a7bb a3a8 3bbd 5867 633c
00000310: 27b7 ac3d 10aa 923b da94 343d abb4 a03d
00000320: 7a86 213d 5f8a afbd 9ced a8bd 65d6 59bd
00000330: da31 dabc 5f9e b43d 0c39 f93c 5580 9cbd
00000340: aee3 223d 9b94 8d3d 1887 0abc 2893 28bc
00000350: b864 d2bc 42a1 34bd 1729 863d c0cc b8bc
00000360: df35 b0bd 240f 60bd ea9e e9bc d0b6 b53c
00000370: f6a5 5c3d a0f6 31bd f0b2 e33b 08bc fbbc
00000380: 3dea 89bd d9f9 873d f027 8f3b a6aa 7e3d
00000390: e920 8d3d 1058 08bc 20b0 7dbc 15de a53d
000003a0: 79ea 9a3d b277 2b3d f358 05bd c002 8e3b
000003b0: 3b6d a53d 88eb 35bd be78 113d def7 353d
000003c0: 8249 a9bd c12a 4dbd 5d0e b13d f83a 6fbd
000003d0: ecd6 a3bd 005d 833b cac3 53bd 30a0 cdbc
000003e0: 8b1c afbd 32cf 86bd ac6d 82bc 9dec a93d
000003f0: acc4 033d 6eb1 94bd d8f1 aebc 0e83 543d

fc.weight f4 [2, 128]
0.05928494 -0.11908374 0.558501 -0.24557573 -0.23459508 -0.09509008 -0.45154124 0.3067852
0.12608768 -0.40417543 0.29848582 -0.06526614 -0.06513327 -0.08306261 -0.33718494 -0.038613092
-0.20104733 0.43081912 0.046054013 -0.006638915 -0.33790085 -0.045197472 -0.20362508 -0.21802536
0.024810357 0.044502374 0.08121017 -0.07557834 0.21816398 0.395099 0.19719067 0.08584153
-0.067112595 -0.078852326 -0.0059962613 -0.030170875 0.028608244 0.10331271 -0.13364965 -0.15071367
-0.40428293 -0.4436736 0.17259848 0.0099709835 0.19617818 0.2880844 -0.35222065 -0.4493036
0.010902423 -0.5391559 -0.01634401 0.05299529 0.049547978 0.05514872 -0.07728886 0.057056777
0.041255776 -0.1649156 0.2726219 0.049701482 0.26093414 -0.028280146 0.0113591105 -0.112150565
0.06945724 -0.27604428 -0.2010889 -0.3270062 -0.066689104 0.032842513 0.5679551 -0.07921903
0.025552472 0.5393155 -0.069921896 0.030986615 -0.457561 0.038802452 -0.34195864 0.29056776
-0.046411414 0.08772506 -0.07051106 -0.023574553 0.23080178 -0.025382385 -0.27405685 -0.65176445
0.75000244 -0.009095986 0.0443894 0.059438825 -0.22969437 -0.3137446 -0.03148325 0.06971672
-0.33485037 -0.008567444 0.03259049 -0.31834078 0.0030105065 0.61020756 0.0060615316 -0.23776425
0.009665479 0.047175772 -0.6071478 0.36270505 -0.07072766 0.14687315 0.4396637 0.11533947
0.62021226 0.15829048 -0.26629025 -0.122652665 -0.044365816 0.29677364 0.009242006 -0.012772057
-0.08279367 -0.49616414 0.010266681 0.16320544 0.062378164 -0.023155231 0.039893635 -0.08096202
-0.016771518 0.17405027 -0.5250911 0.37805286 0.094351284 0.15131085 0.48221162 -0.24136151
-0.22481602 0.2322104 -0.26567546 0.036559083 -0.079390295 -0.04883485 0.22128552 0.028155984
0.117280416 -0.59749824 -0.08697614 0.020788249 0.28926387 0.04959379 0.11481679 0.093959846
-0.025683735 0.0506364 -0.03581281 -0.06166764 -0.22037692 -0.43544564 -0.13614234 0.028168611
0.019542245 -0.03404461 -0.005808298 -0.056453034 0.06297014 -0.20421723 0.043265563 -0.0066997316
0.41364646 0.4320877 -0.1474529 0.07982995 -0.3462933 -0.2224913 0.3367295 0.4798392
0.073967196 0.4427265 0.034928903 0.07705817 -0.03452954 0.03219638 0.014080136 -0.0720772
-0.05460471 0.1572402 -0.2916859 -0.07643617 -0.1791289 0.10106594 -0.0428065 0.11781773
-0.04028694 0.18296288 0.12554507 0.21543969 -0.08511107 -0.18426819 -0.5661749 -0.036546025
-0.043825433 -0.54972404 -0.054729614 -0.1497346 0.36940876 -0.009159123 0.23075666 -0.14439583
0.07011857 -0.057238657 -0.063061945 0.17230591 -0.27572298 -0.0572006 0.22563669 0.7170196
-0.6299021 0.038085923 -0.02226933 -0.07048444 0.21267931 0.3023375 0.0693314 -0.025335241
0.19526204 0.052235898 -0.015869265 0.3215154 0.023202527 -0.5974079 -0.031873744 0.20153852
-0.04634951 -0.08056791 0.5503681 -0.4596439 0.020247646 -0.19024399 -0.3398056 -0.093483165
-0.6258225 -0.0031669545 0.17662014 0.094524935 -0.07557567 -0.2714924 -0.016811356 0.011517104
0.03733691 0.5830308 -0.05458204 -0.27022046 0.0047379714 -0.08998384 -0.03658694 0.056645732
00000000: c4d4 723d 2de2 f3bd ecf9 0e3f 3478 7bbe
00000010: b139 70be 96be c2bd 6a30 e7be f312 9d3e
00000020: 211d 013e 15f0 cebe 22d3 983e 41aa 85bd
00000030: 9864 85bd bb1c aabd 81a3 acbe c328 1ebd
00000040: 5adf 4dbe 5394 dc3e 22a3 3c3d 418b d9bb
00000050: 5701 adbe fc20 39bd 1883 50be 0a42 5fbe
00000060: 173f cb3c 1f48 363d 8551 a63d d1c8 9abd
00000070: 6166 5f3e 6b4a ca3e 5aec 493e afcd af3d
00000080: 5472 89bd 547d a1bd 497c c4bb e928 f7bc
00000090: d65b ea3c 9d95 d33d 74db 08be af54 1abe
000000a0: 2cfe cebe 3029 e3be a8bd 303e 565d 233c
000000b0: efe2 483e cc7f 933e 4456 b4be 1f0b e6be
000000c0: 14a0 323c 1f06 0abf e0e3 85bc 9711 593d
000000d0: d2f2 4a3d a0e3 613d 9f49 9ebd 5eb4 693d
000000e0: d1fb 283d a3df 28be 1995 8b3e c893 4b3d
000000f0: 2999 853e c4ab e7bc 901b 3a3c 32af e5bd
00000100: 993f 8e3d ad55 8dbe 40ea 4dbe 5b6d a7be
00000110: 4c94 88bd df85 063d 8165 113f 963d a2bd
00000120: 6b53 d13c 9510 0a3f 3633 8fbd a4d7 fd3c
00000130: 6f45 eabe 52ef 1e3d 3415 afbe 4cc5 943e
00000140: e519 3ebd 32a9 b33d 1a68 90bd 6c1f c1bc
00000150: 4d57 6c3e b8ee cfbc 2e51 8cbe 09da 26bf
00000160: 2900 403f 5507 15bc a9d1 353d 2076 733d
00000170: 0035 6bbe 22a3 a0be 95f4 00bd a4c7 8e3d
00000180: 8271 abbe 775e 0cbc 9b7d 053d 90fd a2be
00000190: eb4b 453b 9036 1c3f d09f c63b 7978 73be
000001a0: f55b 1e3c 623b 413d 0a6e 1bbf 7ab4 b93e
000001b0: aad9 90bd ea65 163e 9a1b e13e 1a37 ec3d
000001c0: 3bc6 1e3f e616 223e 3257 88be 5231 fbbd
000001d0: eeb8 35bd b7f2 973e c86b 173c e441 51bc
000001e0: ba8f a9bd 3a09 febe 9535 283c 541f 273e
000001f0: 3f80 7f3d 0ab0 bdbc 8267 233d 6acf a5bd
00000200: 6c64 89bc 3c3a 323e 5f6c 06bf 2590 c13e
00000210: 3f3b c13d 3bf1 1a3e 71e4 f63e 7927 77be
00000220: 2c36 66be 90c8 6d3e 9d06 88be fabe 153d
00000230: 6197 a2bd 0d07 48bd ac98 623e 61a7 e63c
00000240: b730 f03d a5f5 18bf 8c20 b2bd 1e4c aa3c
00000250: 651a 943e dc22 4b3d 1125 eb3d 056e c03d
00000260: b266 d2bc 1d68 4f3d 74b0 12bd 3597 7cbd
00000270: 7daa 61be bbf2 debe e668 0bbe dcc1 e63c
00000280: 0f17 a03c 5c72 0bbd 8953 bebb 4c3b 67bd
00000290: 7df6 803d 521e 51be 3b37 313d 6c89 dbbb
000002a0: 78c9 d33e 993a dd3e e5fd 16be e37d a33d
000002b0: 5b4d b1be c2d4 63be cf67 ac3e 7cad f53e
000002c0: 1d7c 973d 0cad e23e 9c11 0f3d add0 9d3d
000002d0: d96e 0dbd 5ae0 033d 5fb0 663c 369d 93bd
000002e0: 30a9 5fbd 9303 213e db57 95be 918a 9cbd
000002f0: 916d 37be a9fb ce3d de55 2fbd 6c4a f13d
00000300: eb03 25bd 9f5a 3b3e e38e 003e 399c 5c3e
00000310: b64e aebd cdb0 3cbe d7f0 10bf 49b1 15bd
00000320: 4c82 33bd b7ba 0cbf 292c 60bd 0754 19be
00000330: 2523 bd3e 2510 16bc 794b 6c3e 80dc 13be
00000340: 539a 8f3d 1573 6abd 9f26 81bd f670 303e
00000350: 902b 8dbe 2d4b 6abd 4e0d 673e 998e 373f
00000360: 4441 21bf fcff 1b3d 2c6e b6bc 255a 90bd
00000370: 9bc8 593e fbcb 9a3e 9ffd 8d3d da8b cfbc
00000380: c6f2 473e 4ff5 553d 4300 82bc ab9d a43e
00000390: 3a13 be3c b9ef 18bf 0b8e 02bd 1d60 4e3e
000003a0: fcd8 3dbd ca00 a5bd ece4 0c3f 7256 ebbe
000003b0: 64de a53c 52cf 42be 00fb adbe 1a74 bfbd
000003c0: e735 20bf ae8c 4fbb e9db 343e 4a96 c13d
000003d0: 6bc7 9abd 0d01 8bbe f8b7 89bc 3cb2 3c3c
000003e0: 96ee 183d 8241 153f 6b91 5fbd 565a 8abe
000003f0: fc40 9b3b 7349 b8bd 30dc 15bd 5b05 683d

fc.bias f4 [2]
-0.22481756 0.08870868
00000000: 9336 66be e5ac b53d
